rl_training/rl_games/runs/quad_ppo_26-17-48-12/nn/quad_ppo.pth (torch, 554510 bytes, 36 tensors)

value_mean_std.running_mean f8 [1]
000000 5b 26 b7 02 6e 24 20 40
       8.071151814324528

value_mean_std.running_var f8 [1]
000000 cd 23 26 a6 2b d0 4c 40
       57.62633206236169

value_mean_std.count f8 []
000000 00 00 00 80 00 00 4e 41
       3932161.0

running_mean_std.running_mean f8 [13]
000000 40 58 6b a8 db 2d d2 bf e0 99 da f7 3d 1b f0 3f
       -0.2840489525527836 1.0066508943360688
000010 8c 4d 39 e9 48 c3 dd bf 1b 16 f1 68 ff 2c aa bf
       -0.465044238813072 -0.05112455516841071
000020 82 d0 79 90 73 24 aa bf 70 e7 8a e0 58 94 9a 3f
       -0.05105935228940074 0.025956524567596728
000030 4b 1b 9a cd f0 83 ef 3f 1c 3f 67 1a 31 b0 e8 bf
       0.9848560348189975 -0.7715077892007431
000040 54 61 bc 98 f0 6a f3 3f 41 9e 5a 73 a1 95 c3 bf
       1.2136083570713554 -0.15300386555212422
000050 b6 d4 00 13 a7 9e b2 bf cb 6b 34 5e fb f3 b8 bf
       -0.07273334707209042 -0.09747286844178331
000060 6c 84 07 7b 4a 0a b3 3f
       0.07437577727934447

running_mean_std.running_var f8 [13]
000000 9a 72 54 91 8b bf 07 40 13 86 33 cc 9e 63 12 40
       2.968527923001898 4.597285452503928
000010 7a f8 9c d8 14 44 12 40 bb ff 47 80 fb 82 83 3f
       4.5664857717330225 0.009527172901471084
000020 c8 f0 bc b2 38 04 85 3f be ba 88 b8 f3 21 70 3f
       0.010261958079006553 0.003938629183308505
000030 86 ec 11 ba e5 d4 3c 3f 49 ff b8 82 a6 6c 0c 40
       0.00043993576588947263 3.553051968832652
000040 ba 07 74 fa 5c b8 13 40 89 0f 95 41 70 f8 0e 40
       4.9300421841925814 3.8713078616728507
000050 e7 a0 53 3a 08 da e2 3f ef e4 5a e0 c3 e4 e1 3f
       0.5891152514641619 0.5591754323897059
000060 f4 53 03 0f d1 f6 b4 3f
       0.08189112297561946

running_mean_std.count f8 []
000000 00 00 00 00 01 00 3e 41
       1966081.0

a2c_network.sigma f4 [4]
000000 50 41 a7 bd 13 04 09 be 1a 28 a3 bd 77 fb 39 bd
       -0.08166754 -0.1338046 -0.07966633 -0.04540583

a2c_network.actor_mlp.0.weight f4 [256, 13]
000000 67 cf 02 be 41 53 58 bc 82 6d ab bd b8 93 65 3d
       -0.1277443 -0.013203443 -0.08370496 0.05604908
000010 5b 9d e9 bc 3a 31 32 3e 23 4f 5a 3d d6 17 d2 bd
       -0.028517416 0.17401591 0.053298127 -0.102584526
000020 fb 7a 1c be a9 52 97 bd 2c ca 9b bd f3 2a 8a bd
       -0.15281288 -0.07388813 -0.076069206 -0.06746473
000030 74 47 16 bc 05 f1 fc 3d 22 a2 46 3e e0 c8 db be
       -0.009172309 0.12350658 0.19397786 -0.42926693
000040 25 06 1c 3e d1 4e a2 3d 0f fe 3f 3e a0 2c 33 3e
       0.15236719 0.07925189 0.1874926 0.17497492
000050 1c 1c 6b be 29 ad 36 be 10 56 68 be 4f 5b 2e 3e
       -0.22959942 -0.17839493 -0.2268908 0.17027019
000060 82 23 3b bd 9f 6d 1a 3d 96 d7 1d be 28 99 a2 3e
       -0.04568816 0.0377022 -0.15414271 0.31757474
000070 41 ad 07 be 88 e9 5d 3e b7 b0 f8 3b b8 f6 03 be
       -0.13249685 0.21671116 0.0075894254 -0.12887084
000080 c0 29 f9 3d 44 58 24 be ad 43 f3 3d 83 7f 6e bc
       0.12166166 -0.16049296 0.118781425 -0.014556768
000090 53 0f 1c bd 8a 1b ed bd 1f d0 44 bd 0c 0d 94 3e
       -0.03810055 -0.11577518 -0.048050042 0.28916204
0000a0 e5 fc c5 bc 29 e9 2c 3e a4 f1 50 3e ac 58 e3 bb
       -0.024168441 0.16885819 0.20404679 -0.0069380607
0000b0 c2 67 31 be 51 e2 9e 3d e7 3b 14 3e 71 47 59 be
       -0.17324737 0.0775801 0.14475976 -0.21218659
0000c0 8f bf 23 3e ae 75 43 3e f6 b5 55 3e 7d 11 36 be
       0.15991043 0.1908786 0.20870194 -0.17780109
0000d0 e1 6b b8 bd fe 98 81 3c 26 8a 55 3d e8 7d 64 be
       -0.09004951 0.015820023 0.0521337 -0.22313654
0000e0 8d be 5f be b8 48 f8 3d e0 d6 99 bd 8b ef fb 3d
       -0.21850033 0.12123245 -0.07511687 0.123015486
0000f0 29 87 1a 3b 95 de b8 3d 42 a3 1d 3d 69 de 92 3d
       0.0023579097 0.09026829 0.038485773 0.071713276
000100 53 7a c2 3d 1c e4 94 be dc 55 fa 3d 06 4e 6c be
       0.09495988 -0.29080284 0.122234076 -0.23076639
000110 5e fd 52 be 71 69 8a bc 1a 87 99 bd 99 9e 39 3e
       -0.20604464 -0.016895982 -0.07496472 0.18126906
000120 8f 08 4f be 31 02 5c be 3f 5e 56 3e 12 20 16 bd
       -0.20218109 -0.21485211 0.2093439 -0.03665168
000130 ff 1d 15 3e 6e df a6 3d 1d 96 68 be 9d 16 0f 3d
       0.14562224 0.081480846 -0.22713514 0.034933675
000140 ed 06 9d 3c 08 02 31 be 23 43 40 be 8c 0a 69 3d
       0.019168342 -0.17285931 -0.1877561 0.056894824
000150 02 8e 90 3d 6f 0b fd bd f9 97 8c bd f7 5e 41 3e
       0.07058336 -0.123556964 -0.06864924 0.18883882
000160 91 21 0a bd 79 17 cd 3d 7c 44 88 3d f7 9b 2b be
       -0.033723418 0.10014243 0.06653687 -0.16758715
000170 24 ce 75 be ba 92 83 3e 6e 99 ee bc 8d f7 5b 3e
       -0.24004418 0.2569788 -0.029125895 0.21481152
000180 e5 73 a2 3d 28 75 99 3d ff a2 53 3e 89 10 80 3e
       0.079322614 0.07493049 0.20667647 0.25012615
000190 c4 f7 1f be dc f0 04 3a 2e 0c 25 3e 57 5d 30 3e
       -0.15621859 0.0005071291 0.16117927 0.17223106
0001a0 0f ba 58 3e 9d b6 95 be 69 ac cb be cd 24 11 be
       0.21164726 -0.29240885 -0.39779976 -0.14174195
0001b0 ed 3e b6 3d 07 d7 47 3e 06 4a c9 bd 8c 22 16 3e
       0.08898721 0.1951562 -0.09828572 0.14661616
0001c0 20 1c 13 be f3 77 94 be e1 df 69 bc 9d da 17 3e
       -0.14366198 -0.28997764 -0.014274568 0.14829488
0001d0 6d fc 67 3e 24 82 7c be 9c 40 01 3e 1a db c3 3e
       0.22654887 -0.2465902 0.12622303 0.382531
0001e0 13 26 cc 3d a2 3a 0d 3e ac 2a 14 3e 69 36 10 3d
       0.099681996 0.13791898 0.14469403 0.03520814
0001f0 27 67 9e bc a1 11 71 bd 82 96 26 be 21 fc 61 bd
       -0.019336296 -0.058854703 -0.16268352 -0.05517209
000200 12 e8 26 bb 5c 6a c9 bd 95 9f d3 3d 66 32 d5 3d
       -0.0025467915 -0.098347396 0.10333172 0.10410003
000210 9a 8a 23 bd a8 ec 9b 3d 4e d1 ed 3d 28 06 09 3e
       -0.039927103 0.07613498 0.11612187 0.13381255
000220 54 e3 33 3e bf 0b cc bd 91 a2 92 3e b7 cf a9 3b
       0.17567188 -0.09963178 0.28639653 0.0051822322
000230 f7 a2 87 bc 08 25 4e be 95 92 04 be c2 89 03 be
       -0.0165572 -0.20131314 -0.12946542 -0.12845519
000240 61 a3 6e be ad 6a ad 3e 25 d3 ba bd 91 d6 2b be
       -0.23304512 0.3387045 -0.09122304 -0.1678107
000250 59 23 14 3e ac 16 8e 3d 11 30 b4 3d 31 c8 1d be
       0.14466609 0.06937918 0.087982304 -0.15408398
000260 ce 6b ca 3d 1e fd 5a 3b 34 23 8d bd 3e f7 39 be
       0.09883843 0.003341503 -0.0689148 -0.18160722
000270 05 f4 09 be 8b 5b 73 bc f6 5b 08 3e 10 bd 6b bd
       -0.13471992 -0.0148533685 0.1331633 -0.05755335
000280 a6 96 82 3d 43 7f 50 3e 17 dc 5a 3e 7f b9 29 3e
       0.0637639 0.20361046 0.2137302 0.16574667
000290 a9 0b 7a 3d d2 bf 63 be 0e f1 0b 3e 01 d8 83 bd
       0.061046276 -0.22241142 0.13666174 -0.06437684
0002a0 c6 7f 77 bd 28 a4 ff be 8b 19 5a be 50 5d c0 be
       -0.06042459 -0.4992993 -0.21298806 -0.37571192
0002b0 66 c7 37 3e 83 d7 1b be 72 1e 0c be 0a 3c 80 3d
       0.17947158 -0.1521893 -0.13683489 0.062614515
0002c0 09 1e 54 be 85 cb 1e 3e 5b de 29 be 54 7a 9c bc
       -0.20714583 0.15507324 -0.16588728 -0.0191013
0002d0 fe 19 0c bc 39 e8 48 3e f4 e4 9e be 08 af 9c 3e
       -0.008551119 0.19619836 -0.31034052 0.30602288
0002e0 39 37 cc 3e 4b 2b 82 3e a7 cb 13 be 9d c2 9c bc
       0.39885882 0.25423655 -0.14433156 -0.019135768
0002f0 cf 73 5e be 71 83 88 3e d1 95 27 3d 7e 9e 50 3e
       -0.21723865 0.26662782 0.04091436 0.2037296
000300 48 ad 69 3d f8 09 b0 3b c8 7e e0 3b 6f 50 a7 3d
       0.05705002 0.005372282 0.006851051 0.08169638
000310 3e fa 2a 3e 0b 00 bb 3d b3 03 34 3d 6a 82 3c be
       0.16697022 0.091308676 0.04394884 -0.18409124
000320 20 32 1a 3e 40 c4 50 3e f8 6d 96 3e c1 13 7f 3e
       0.15058184 0.20387363 0.29380774 0.2490988
000330 7c 88 6b be ef c5 20 bd df a8 53 3e 75 d3 61 be
       -0.23001283 -0.039251264 0.20669888 -0.2205332
000340 7e ae 94 3e 69 62 89 be 1f 91 5f be 16 8e 14 3e
       0.29039377 -0.26832893 -0.21832703 0.14507326
000350 91 17 37 be 72 12 6b bd 80 c3 29 3e 24 88 83 3e
       -0.17880084 -0.057390638 0.16578484 0.25689805
000360 c5 cb 78 3e 87 5b 8b bd c9 5b 25 be f4 96 5b 3e
       0.24296482 -0.06804567 -0.16148295 0.21444303
000370 60 12 ec bc 24 dd 0e be 8b 2c 44 3e e3 9c 9a be
       -0.028817356 -0.13951546 0.19157617 -0.3019782
000380 da e1 2c 3e 82 0a f3 3d f9 78 0e be 74 f8 55 be
       0.1688303 0.118672386 -0.13913335 -0.20895559
000390 95 cf ab bd cb f7 2b 3e 60 b0 da 3c 0d f9 93 bd
       -0.083892025 0.16793744 0.02669543 -0.07225237
0003a0 25 b8 a1 bc 74 e8 8c bd f4 29 bf be 25 8e e5 be
       -0.019741127 -0.068802744 -0.37336695 -0.4483501
0003b0 d3 67 b1 3e ba 9e 04 3e 57 c8 47 bd df 1c 0e 3d
       0.34649524 0.12951174 -0.048775043 0.034695502
0003c0 5f 78 15 3e 27 1f 8b bd b2 80 54 be 3a a9 5c 3e
       0.14596699 -0.06793051 -0.20752218 0.2154893
0003d0 6d 8f f8 3d 09 2d 83 bc 68 3f 09 bd b7 d5 61 3e
       0.12136731 -0.016012685 -0.033507735 0.22054182
0003e0 6f 0b ae 3e 74 37 1e be a6 60 6a 3e 4b db 3a 3d
       0.33993098 -0.15450841 0.22888431 0.04561929
0003f0 b5 41 3f be a0 ee 19 3e eb f8 19 be 99 b4 97 3e
       -0.18677409 0.15032434 -0.15036361 0.29629973

a2c_network.actor_mlp.0.bias f4 [256]
000000 95 a2 26 3e 6b 2a e3 3d 22 71 40 3e bc 5a 35 3b
       0.16272958 0.11092075 0.18793157 0.002767249
000010 e4 f2 94 3e dc 9b 7b 3d 4f 4f 0a 3e 23 63 0a 3e
       0.2909156 0.061427936 0.13506816 0.1351438
000020 95 03 17 be 74 07 ed 3c 4d 03 1b 3e 35 d6 98 bd
       -0.1474746 0.028934218 0.15137978 -0.07462732
000030 90 c8 eb 3c e6 8a 32 be f7 56 85 3d 59 e0 84 bd
       0.02878216 -0.17435798 0.06510728 -0.064881034
000040 a5 7d 61 bd 60 7d 3a 3e de 38 bc be 77 2d e4 3d
       -0.055051465 0.1821189 -0.36762136 0.11141484
000050 13 64 80 3e 75 29 a5 bd b8 77 89 3e 82 26 ec bc
       0.2507635 -0.08064548 0.2684915 -0.028826956
000060 f9 38 ba 3d 62 c1 1c be 70 cf 35 3e be 4e e5 bd
       0.09092898 -0.15308145 0.17754912 -0.111966595
000070 37 4c 57 3e 0b fe 07 3e be ca 99 3e b1 53 38 3e
       0.21025167 0.13280503 0.30037493 0.18000676
000080 43 aa a5 bd f2 9f 6c 3d aa 86 00 be fd c4 35 3e
       -0.080891155 0.057769723 -0.1255137 0.17750926
000090 05 d3 0d 3e d2 a9 74 3e b6 1e fc 3d c5 a2 5c be
       0.13850029 0.23892906 0.12310545 -0.21546467
0000a0 49 82 e1 3d 53 25 09 3e e9 86 57 3e 3b 6d 03 3e
       0.11011178 0.13393144 0.21047558 0.12834637
0000b0 71 77 c3 3d 7c ba 8e bd 99 13 0b 3e c8 1e 1e 3e
       0.09544266 -0.06969163 0.13581695 0.1544143
0000c0 20 26 ba 3d 79 25 8b 3e 3b 7e 87 ba fb 0c cd bd
       0.09089303 0.27177027 -0.0010337302 -0.100122415
0000d0 8a d5 95 bd 49 3c 4d 3c 77 ff d1 3d 59 36 2e 3d
       -0.0731612 0.01252658 0.10253804 0.0425323
0000e0 5e e9 21 3e 2f 7d ba 3c d5 01 3e 3d d9 02 ad 3d
       0.15811679 0.02276477 0.046388466 0.08447809
0000f0 54 35 62 bd e3 31 f3 3d 62 07 41 be 99 e5 5e 3d
       -0.05522664 0.118747495 -0.18850473 0.05441818
000100 29 b5 7c be 02 7c 53 be 47 68 3c 3e 5d c3 17 be
       -0.24678482 -0.20652774 0.18399154 -0.14820619
000110 94 9a 93 bd d2 d9 eb 3d cd d4 48 be b6 34 66 be
       -0.07207218 0.11516155 -0.19612427 -0.22481045
000120 65 3a 80 3e 03 e6 68 3d 19 f9 d8 bd ef fe 08 bd
       0.25044551 0.05685998 -0.105943866 -0.03344625
000130 8e a1 e0 3d 0c 1e b0 bd 2d 3c d9 3d 57 ed 46 3e
       0.10968314 -0.08599481 0.10607181 0.19426475
000140 a3 aa ac 3d 88 63 24 be 6e 9f a5 3d a1 56 86 be
       0.08430984 -0.16053593 0.080870494 -0.26237968
000150 a2 bb 15 be 01 94 8f ba f8 97 05 bc 5f 73 e4 bd
       -0.14622357 -0.0010954143 -0.008153908 -0.11154818
000160 f6 77 b0 bc 12 3a 7b 3c a7 f1 1c 3e 8a ff a1 3d
       -0.021541577 0.015333669 0.15326558 0.07910068
000170 79 0e 5b 3d 4a aa 19 3e f5 16 fa bd c5 e1 e7 bb
       0.0534806 0.15006366 -0.1221141 -0.0070764744
000180 f0 e0 f2 3d f4 8f 30 3e 7d f3 4b 3e a7 c1 c5 bd
       0.1185931 0.17242414 0.19917102 -0.09656077
000190 7c 0b 78 bd 7f 9c 01 3d a1 0a 1e be d3 6a 5c 3d
       -0.060557827 0.031643387 -0.15433742 0.053812813
0001a0 ef 87 81 3d 2a 0c ac 3c a7 ac 26 be 76 21 7a 3d
       0.063247554 0.021001894 -0.16276799 0.061067067
0001b0 8f b1 30 3e 7b 87 98 3d 9d e6 cd 3d 24 f3 85 3d
       0.17255233 0.07447716 0.100537516 0.06540516
0001c0 26 27 0b be 52 a0 5d be 0a b0 40 be ae 3f b9 bd
       -0.13589153 -0.21643189 -0.18817154 -0.09045349
0001d0 9b 69 f2 3d 6e ef 07 3e 78 a5 54 3e 6f be 61 3e
       0.11836549 0.13274929 0.20766246 0.22045301
0001e0 94 c6 e4 3d 12 ed 83 be 28 a7 3e 3e d9 f9 e1 3d
       0.11170688 -0.25766808 0.18618453 0.11033983
0001f0 d3 62 37 3d 96 04 57 3e 35 94 89 3d c4 e9 cf bd
       0.04477198 0.20997843 0.067177214 -0.10152009
000200 b6 bb 9f 3d 61 b2 10 3e 26 34 ce bd 3b 37 64 3d
       0.07799475 0.14130546 -0.1006854 0.055716734
000210 32 08 a9 3d 2f e3 60 3e 70 48 5c 3e db e7 31 3d
       0.08253516 0.21961664 0.21512008 0.043434005
000220 1d c9 11 3d 31 bb 1f 3e 0f de 0d bd 39 2c 6c 3e
       0.035592187 0.15598752 -0.0346356 0.23063745
000230 c5 ce be 3d bb fa 5a 3e 4a 53 1b 3e b6 aa 00 3e
       0.09316782 0.21384709 0.15168491 0.12565121
000240 e1 43 8d 3d a7 39 9e bd 29 49 ab bd 88 6b d4 3c
       0.068977125 -0.0772584 -0.083635636 0.025930181
000250 4e d3 ec 3d 6f 9e 7d 3e d5 ba ec 3d 16 90 5f 3e
       0.11563741 0.24767469 0.11559073 0.21832308
000260 99 46 7e 3d 16 9a 4c 3e 80 89 ae 3d c0 66 00 3e
       0.062079046 0.19980654 0.0852232 0.12539196
000270 dd 0f 19 3e 8a 99 11 be 8a 3e 71 3b a7 0a 05 3e
       0.14947458 -0.14218727 0.0036810958 0.12992345
000280 cf 36 9b be 50 3c a8 3d 68 a6 21 3e 02 89 b7 3d
       -0.30315253 0.08214629 0.15786135 0.08961679
000290 e4 b4 19 be 12 92 81 be 79 0a 04 3e 14 a1 b8 3c
       -0.1501041 -0.25306755 0.1289462 0.022537746
0002a0 fd 4d e5 3c 37 10 a9 3d 19 17 eb bc a0 2f 80 3d
       0.02799129 0.08255046 -0.028697537 0.06259084
0002b0 34 52 eb 3d 79 ac 6c bc ef 2a 28 3e 85 6c cb 3b
       0.114902884 -0.014445418 0.16422628 0.006208005
0002c0 09 c6 bf 3d 07 d8 36 3e b7 9a 86 bd 50 15 7d 3e
       0.09363944 0.17855845 -0.06572478 0.24715161
0002d0 c6 0d 64 be e2 92 13 3e 07 9a dd bd 58 ee 3d bc
       -0.22270879 0.144115 -0.10820394 -0.01159247
0002e0 5c 40 2c 3e 18 b0 a0 bd d3 19 56 3e c1 48 00 3e
       0.16821426 -0.07846087 0.20908289 0.12527753
0002f0 1f ae 19 3e 32 6d f2 bd 55 ea f6 3d 13 36 cf 3d
       0.15007828 -0.118372336 0.12056414 0.10117736
000300 32 34 a8 bc ac 82 06 be c8 d5 3e 3e a9 03 6e bc
       -0.020532701 -0.13135785 0.18636239 -0.01452724
000310 d8 1e 45 3e 4a 88 dc 3d 6c 11 92 3e 57 32 1d 3e
       0.19250047 0.107681826 0.28528917 0.15351234
000320 15 c8 2e 3d 49 0c 18 be 71 9a f9 bb b5 42 d6 3d
       0.04267128 -0.14848436 -0.007617288 0.10461942
000330 70 c4 06 3e b0 6b 18 3e 51 25 86 be dd 66 e9 bc
       0.13160872 0.1488483 -0.26200345 -0.028491432
000340 89 77 af 3d 41 37 12 3e ae ba 9c 3d 90 a5 13 3e
       0.085677214 0.1427889 0.07652794 0.14418626
000350 c4 fb 09 3e 80 ef e0 3d 46 f8 aa be 9e db 74 3e
       0.13474947 0.10983181 -0.33392543 0.23911902
000360 3a 61 20 bc 5e 02 2e 3c 4b cf cd bd 98 5b 9e 3e
       -0.009788806 0.010620682 -0.100493036 0.30929255
000370 94 da de 3d 70 aa 6b 3d ef 45 85 3c fe 3f bc 3d
       0.10881534 0.05753559 0.016268698 0.09191893
000380 d6 4f 13 3e fe 8f 31 3e 12 40 9b 3e 1e 32 25 3e
       0.14385924 0.17340085 0.3032232 0.161324
000390 be 43 0a be 3f 47 cc bc 48 98 64 3d 01 cb f6 3c
       -0.13502404 -0.024936317 0.05580929 0.030126097
0003a0 da 08 81 3d 33 2a ee 3b 66 0f 17 3e 27 d5 db bd
       0.063005164 0.007268214 0.14751968 -0.10734015
0003b0 09 67 ac 3d 00 98 52 3d 07 a9 90 3d ca 0c 87 3e
       0.0841809 0.05141449 0.070634894 0.26376945
0003c0 8d bd 16 be 3c ab 05 be 92 39 07 be 03 a1 02 bd
       -0.14720745 -0.13053602 -0.13205555 -0.031891834
0003d0 d1 af c1 3d 42 5e b2 bc 1d ab 75 be 5a 69 30 3e
       0.094573624 -0.021773461 -0.23991056 0.17227688
0003e0 34 5d 38 3e d0 ab 48 3e 87 e6 d1 3e 30 30 50 be
       0.18004304 0.19596791 0.4099619 -0.20330882
0003f0 53 6e 3b 3c fb 36 30 3e a5 c7 93 be a4 7c 57 3e
       0.011439878 0.17208473 -0.28863254 0.2104364

a2c_network.actor_mlp.2.weight f4 [128, 256]
000000 1c b3 c5 bc 2d 39 45 3c ef 43 3a bd 09 c4 09 3c
       -0.024133258 0.012037558 -0.045474943 0.008408555
000010 c5 a7 d0 bd 06 3e 48 bd 9e 42 f7 bd da 13 35 bd
       -0.101882495 -0.048887275 -0.12073253 -0.044208385
000020 24 a5 18 bc f2 2f 1a bd 8a 70 1a 3c 5d c0 16 bd
       -0.009316716 -0.03764338 0.0094262455 -0.036804546
000030 db b1 0f 3d c7 bd 03 3d c5 84 53 bd 06 6e 82 3d
       0.035081726 0.032163408 -0.05164029 0.063686416
000040 c0 75 c4 3d 3d 5a 31 bd 33 c1 46 3d 39 38 24 bd
       0.095927715 -0.04329895 0.048524093 -0.04009268
000050 8b 5a 6d bd ae cf 21 3d b7 eb f2 bb ae d6 bb 3c
       -0.057947677 0.0395047 -0.0074133533 0.022929516
000060 6a bc 9c bc cb 64 17 bc e0 f5 4b 3d 14 d7 b0 3c
       -0.019132812 -0.0092403395 0.04979503 0.021586932
000070 bf 07 11 3d ba 17 ec bc 6d 88 62 bc 2c d6 33 bc
       0.035407778 -0.028819907 -0.013826472 -0.0109763555
000080 36 ac df 3c 19 0e d0 bc 52 07 dd 3b 75 f0 29 3d
       0.027303796 -0.025397347 0.0067452574 0.041489083
000090 9c 6d dd bc 33 b7 a9 bc 7e 31 8e bd b1 4c 46 b9
       -0.027029805 -0.020717239 -0.06943034 -0.00018911321
0000a0 7a 2c 6f 3d fe 8b 48 bc 30 bb 24 bc 8c 4d 1a bd
       0.058392026 -0.012240408 -0.010054395 -0.03767161
0000b0 0f 96 8e bd 4d ed 36 3c da b4 75 bd 73 10 fd 3c
       -0.06962215 0.011164975 -0.059986927 0.030891633
0000c0 0c 2b 4c bd 17 9f 8e 3d 9e 08 61 3b ec 2a 40 bd
       -0.04984574 0.06963938 0.0034337412 -0.046915933
0000d0 de a2 8c 3d da 5a 92 3c 69 65 c6 bc 98 58 1d bd
       0.06867002 0.017865587 -0.024218278 -0.038414568
0000e0 06 17 81 bd 04 61 3a bd ce e3 84 3d 16 3e 8f bd
       -0.063032195 -0.045502678 0.06488763 -0.06994264
0000f0 ff 4b b7 3b a5 8b 80 3d 3d 19 94 3b 51 9e 02 bd
       0.0055937762 0.06276635 0.00451961 -0.031889264
000100 41 3c 0d 3e c9 4f bb 3c 01 d4 8b bc ea 42 ed bb
       0.13792516 0.022865193 -0.017068865 -0.007240643
000110 c8 60 62 3d 7e 3f 8e bd 8d 1b 82 3d c7 52 ac bc
       0.05526808 -0.06945704 0.06352911 -0.021035565
000120 1c db 99 bd 36 f3 28 bd c3 c3 ad 3c 45 21 36 3d
       -0.07512495 -0.04124757 0.02121151 0.044465322
000130 34 f2 4c bd f5 c9 4f 3d 39 1a 9a bc 93 8d 99 bd
       -0.05003567 0.05072971 -0.018811332 -0.07497706
000140 e5 41 b8 bd 7e 54 f5 3c 99 cf 35 3d fe d6 6b bc
       -0.089969434 0.029947516 0.044387434 -0.01439452
000150 dd 15 17 3d 13 e3 24 bd a7 02 95 bd ae 77 2c 3c
       0.036886085 -0.040255617 -0.072758965 0.010526581
000160 c5 5e 9d 3c 1e 0c 29 3d 4a 9b 00 bc 08 f7 1d 3d
       0.019210229 0.04127132 -0.007849524 0.038565665
000170 d7 a4 13 bd 1e 17 81 bd df 9c 9b 3d f7 10 eb bc
       -0.036045875 -0.063032374 0.0759828 -0.028694613
000180 da bb 3d 3d 49 84 09 3d 14 b6 37 3d 86 1e 70 3d
       0.046321727 0.033573423 0.044851378 0.05862286
000190 8c 24 a2 bd 58 19 84 ba 26 c1 86 3d 80 db 8d bc
       -0.07917127 -0.0010078354 0.06579809 -0.01731658
0001a0 a2 95 8e bc 24 e4 cf bc cc 03 b1 3c 86 f2 82 3c
       -0.017405335 -0.02537734 0.021608256 0.015984785
0001b0 cd 64 bb bc ee 2f 3c bd ef aa be ba fd ab e4 3d
       -0.022875214 -0.045944147 -0.0014546792 0.11165617
0001c0 29 d6 84 3b 0f ef b3 3d 8d 5c e9 3d 0b c0 97 3b
       0.00405385 0.08785831 0.11394606 0.0046310476
0001d0 47 86 9a 3d 02 39 44 3d 9f e9 df bd 61 a1 b2 bd
       0.075451426 0.04790593 -0.109332316 -0.08722187
0001e0 31 bf 51 bc 26 39 e3 3b 24 a2 17 bd d2 07 18 bd
       -0.012801931 0.006934303 -0.037019864 -0.037116833
0001f0 35 fa 9b bd 54 92 7b bc 89 28 78 3c 8a aa 22 3c
       -0.076160826 -0.015354712 0.015146383 0.009928355
000200 e8 e8 3a bd dd 46 a0 bd 08 27 59 3d 47 78 20 3d
       -0.045632273 -0.07826016 0.05301574 0.039177205
000210 33 98 c7 bc ef 10 8b bd 12 18 6b bd 80 7e 68 bd
       -0.024364566 -0.06790339 -0.057396002 -0.056761265
000220 8e 67 77 bd 1c 09 2c bd 73 2a 9f 3d e1 78 ba bc
       -0.06040149 -0.042000875 0.077717684 -0.022762718
000230 e9 d6 99 3d 4b 32 4d 3c ac a8 57 bc 38 f3 42 bd
       0.07511694 0.012524198 -0.013162773 -0.047595233
000240 ac 8b 6e 3d af ad a4 bb 39 a3 0d bd e4 a7 16 3d
       0.05823867 -0.0050255875 -0.03457949 0.036781207
000250 5a ae 9c 3b 3d 8c 05 3d 10 70 b8 bc bf ef bb bd
       0.0047815265 0.032604445 -0.022514373 -0.09176587
000260 7e 1b e8 bc 04 e2 b2 bb 0f 8b 48 bc a0 14 f2 3b
       -0.028333422 -0.005459072 -0.012240185 0.0073877126
000270 26 ff 14 bb dd d8 a1 39 d9 7b 08 bc 45 aa ad bc
       -0.0022735088 0.0003086989 -0.008330309 -0.021199355
000280 a6 4e 7e bc 42 36 4b bd 69 1d 13 3d 72 07 58 3d
       -0.015521681 -0.04961229 0.03591672 0.052741475
000290 b7 ed 11 3d 2c 06 df 3d fc c8 41 bd c3 d7 35 bc
       0.035627093 0.10889849 -0.047310814 -0.011098805
0002a0 fb 73 fd bc f3 59 a3 bc 4c 63 e1 3c 58 69 cc 3d
       -0.030939093 -0.019940352 0.027513169 0.0998103
0002b0 26 56 d5 bd 18 0c f6 3c 99 47 90 bd 1a 13 ab 3d
       -0.10416822 0.030035064 -0.07044906 0.08353253
0002c0 70 be 13 3c a7 a3 0b bd ca c9 71 bc 8b e9 9d bd
       0.009017572 -0.034091618 -0.014757583 -0.077105604
0002d0 5c 27 24 3b bd 50 bd bd e5 36 b8 3d 37 d8 de bb
       0.0025047874 -0.09243915 0.08994845 -0.006800677
0002e0 19 81 9a bd 0d 87 67 bd a4 3f 2a bd d5 76 14 3c
       -0.07544155 -0.05652528 -0.0415646 0.009061535
0002f0 41 8d 1d 3d 68 f5 b7 bb f4 80 21 3c 6a 50 c0 bc
       0.03846479 -0.0056139715 0.009857405 -0.023475844
000300 e4 87 1a bd 9d ab 18 3d ac c1 a7 bd cf 78 7b 3d
       -0.03772725 0.03727304 -0.08191237 0.06139451
000310 9f f1 68 bd 01 79 0e 3b ce 05 95 bd 6c 70 e1 3c
       -0.056871053 0.0021739604 -0.07276498 0.027519427
000320 f3 33 1f 3d 50 f9 21 3d e0 79 59 3c fa 1d 12 bd
       0.038867902 0.039544404 0.013273686 -0.03567312
000330 6c ee 3f bd ad 3f af bc da 96 33 3d d5 3c 82 bd
       -0.046858236 -0.021392668 0.043845035 -0.06359259
000340 43 3e 00 bd d4 04 27 bc 7f 12 06 3d 9e 31 73 bd
       -0.031309377 -0.010194022 0.032732483 -0.05937349
000350 f8 bb 5f 3d 2f bf ed bc 0c 57 a1 3d 6b 5b 01 3d
       0.05462262 -0.029021828 0.07877931 0.031581324
000360 38 2e 74 bd 17 0b 6c 3d 50 cc 7a bd 89 f2 c4 bc
       -0.05961439 0.057627764 -0.061230004 -0.024041431
000370 db f1 03 bc bb 4b a5 bd a7 fe b6 3b a0 66 a8 bb
       -0.008053268 -0.08071085 0.005584556 -0.005139187
000380 ab a5 bd bc 6b b2 ef bb 07 5d c6 bb 11 81 59 bd
       -0.023150286 -0.0073149703 -0.00605357 -0.053101603
000390 73 67 9e 3c 68 51 42 bd ca 0a a4 bc ec 39 00 3e
       0.019336438 -0.047440916 -0.020024676 0.12522095
0003a0 38 0e c1 bc b6 8c 1d bd 74 41 b2 bd e9 8f 7e 3d
       -0.02356635 -0.03846427 -0.087038904 0.062148962
0003b0 c0 69 6c 3d 38 fe d3 bd 1e 79 2e bd f3 5c 5e 3d
       0.05771804 -0.10351223 -0.042595975 0.054287862
0003c0 f8 9c 51 bc 5c e6 7b 3c 1e ad e0 3b 88 ef 21 bd
       -0.012793772 0.015374746 0.0068565747 -0.039535075
0003d0 21 cd 61 bd 30 10 03 3d 6e fe 60 bc 6c 8f 59 bd
       -0.055127267 0.03199786 -0.013732536 -0.053115293
0003e0 3e e3 8c bd 6f 45 67 bd a3 39 33 bd d6 b7 20 3d
       -0.068792805 -0.0564627 -0.04375614 0.03923782
0003f0 30 94 b0 3c 26 94 70 bd 87 dc 58 bd 15 20 b3 39
       0.021555036 -0.058735035 -0.052944686 0.00034165444

a2c_network.actor_mlp.2.bias f4 [128]
000000 93 56 a7 bd bd 68 4c 3d a9 16 e5 bc b8 ec 82 bd
       -0.081708096 0.049904574 -0.027964907 -0.06392807
000010 3e bd b9 3c bb ac 13 3d 8a d7 44 3d e3 68 86 3d
       0.022673246 0.0360534 0.048057117 0.06562974
000020 27 f8 a8 3d 3e 3a ba 3c 90 92 93 3d 04 2e ca bc
       0.08250456 0.02273285 0.07205689 -0.024680145
000030 34 eb b6 bd 57 5b a2 3d 76 26 8b bd 85 6d 85 ba
       -0.0893158 0.07927578 -0.06794445 -0.0010179734
000040 c7 f5 c1 bd 3d dd fb bd ef 4a d0 bd b8 92 ac 3d
       -0.094707064 -0.12298057 -0.101705424 0.08426422
000050 51 1e f0 3c e6 81 54 be b5 55 26 be b3 bc 48 3d
       0.029311331 -0.20752677 -0.16243632 0.049008083
000060 f3 72 86 3d 61 2e f8 3c 04 94 33 be c9 ef 8f 3d
       0.065648936 0.030295553 -0.17536932 0.07028157
000070 e4 98 59 3d c2 19 87 bd d9 03 55 3b 0d e8 eb bc
       0.053124323 -0.0659671 0.0032503514 -0.028797174
000080 32 11 c7 3c 8f 64 0b be ff 9f 9a 3d 16 b9 96 3d
       0.024300192 -0.13612579 0.07550048 0.07359521
000090 23 6e 0b bd ad e8 90 bb a6 66 c8 3d 4e 7e 16 be
       -0.03404058 -0.0044222684 0.09785204 -0.14696619
0000a0 a5 1e 7f 3c ff 9d 77 3d d1 fd b1 3d 05 d8 91 3d
       0.015571271 0.06045341 0.0869099 0.071212806
0000b0 25 ea 56 3d 4b c4 81 bc 98 98 ad 3d e4 97 a5 3d
       0.05246939 -0.01584067 0.084763706 0.080856115
0000c0 fa 05 e8 3c 46 28 1f 3d 53 70 4c 3d 82 b9 8f 3d
       0.028323162 0.038856767 0.04991181 0.07017805
0000d0 ea b6 af 3d 13 83 91 3d a7 c2 ee 3d 86 42 0e be
       0.0857981 0.071050785 0.11658221 -0.13892564
0000e0 38 56 90 3d 5d 0e 85 3d 22 a0 81 3d dd 24 b1 bd
       0.07047695 0.0649688 0.06329371 -0.08649609
0000f0 3a 1e a2 3b 54 43 65 3d 31 84 93 3d 7b 73 13 bd
       0.004947451 0.055972412 0.07202948 -0.035998803
000100 cc 20 6a be 18 81 d5 bd 9c ad f7 3c b2 44 21 bd
       -0.22864074 -0.10425013 0.03023415 -0.039372154
000110 dd 08 68 3d 48 67 b4 3d e0 3d bd 3d eb 42 32 bd
       0.056649078 0.08808762 0.09240317 -0.04352085
000120 80 08 d8 3d cb fe 8e 3d 73 38 ad 3c 98 3c a9 3d
       0.10548496 0.06982192 0.021145081 0.082635105
000130 5f 5c 72 be 29 bb d3 bd 69 a6 92 3d 03 42 b5 3d
       -0.2366805 -0.10338432 0.071606465 0.08850481
000140 4a 15 f2 bd 9e 68 8e 3d 67 cf 3f be 50 ae d5 bc
       -0.11820467 0.06953548 -0.18731461 -0.026084095
000150 8d f9 b5 3d 3f c6 3c bc b4 1f 74 3d de 64 98 3d
       0.08885489 -0.011521875 0.059600547 0.07441114
000160 c0 0e ad 3c 1c 89 92 3d df 26 b6 bd ce 3f 8d 3d
       0.021125197 0.07155058 -0.08894133 0.068969354
000170 95 8f b8 bd f6 2d 31 bd 66 39 e6 bb 91 0c 07 be
       -0.09011761 -0.043256722 -0.0070258854 -0.13188387
000180 a0 cd 65 3d 8b 75 93 3c fb 18 24 be dc 30 0a be
       0.056104302 0.018000385 -0.16025154 -0.13495201
000190 06 aa 82 3d c2 ed 3e bd ee bf ac 3c 21 95 c9 bd
       0.06380086 -0.046613462 0.021087613 -0.09842897
0001a0 e2 1f 7b 3d a8 0d 64 3d 79 21 b8 bd e9 4b 94 3d
       0.061309703 0.055677086 -0.089907594 0.07241041
0001b0 c1 87 db 3b 3a 90 1c be 23 51 ed bd 2e 59 37 be
       0.0066995327 -0.15289393 -0.11587741 -0.17905113
0001c0 d6 27 45 3d 9c 10 18 be 3c d6 99 3d 0d eb 50 bd
       0.048133694 -0.14850086 0.07511565 -0.051005412
0001d0 15 b7 d4 bd 84 5b 8e 3c 4a e3 67 3d a7 74 57 3d
       -0.103864826 0.017377622 0.056613244 0.052601483
0001e0 29 f3 8f bd 6e fa ac 3d 0d f9 17 bd f2 ad 6c 3d
       -0.07028801 0.08446203 -0.037102748 0.057783075
0001f0 1c 7d 4f 3d 2c 6f d3 bd e8 1b af 3d cc c6 ab 3d
       0.050656423 -0.10323939 0.085502446 0.08387527

a2c_network.actor_mlp.4.weight f4 [64, 128]
000000 09 e1 20 3e 59 24 10 be 18 4a 85 bd b6 1d db 3d
       0.15710844 -0.14076366 -0.06508273 0.10699026
000010 83 f9 7e 3d 9d f5 38 be 15 12 04 ba 77 9f e0 bd
       0.06224967 -0.18062444 -0.0005038095 -0.109679155
000020 cd cd 22 bd b4 06 40 3d b4 21 0f be 87 95 f6 bb
       -0.03974705 0.046881393 -0.139777 -0.0075251493
000030 59 b9 46 3e 25 50 b2 bc b8 9f 91 3c 54 81 c7 bc
       0.19406642 -0.021766732 0.017776355 -0.02435366
000040 16 a2 fd 3d 9b a9 24 3d c4 5d a1 3b 05 3c a7 bd
       0.12384431 0.04020081 0.004924508 -0.08165745
000050 4c 0c a6 3d b8 55 96 3d 7c b4 c5 3d 8b 7a 4d bd
       0.08107814 0.07340568 0.09653565 -0.050165694
000060 a1 d6 56 3d 1c c3 5b be f4 68 0e 3d 61 4d 67 3c
       0.05245078 -0.21461147 0.03476806 0.01411757
000070 f4 71 9f bd 5b 27 30 3e d1 3b 37 3d 96 94 ac 3d
       -0.07785407 0.17202513 0.04473478 0.08426778
000080 38 ec 89 bc 92 aa b5 bd 19 59 0f be 72 ca 90 bb
       -0.01683627 -0.08870424 -0.13998832 -0.0044186646
000090 46 68 39 3e cb 7b c3 bd f4 25 3f bd 55 39 34 bc
       0.18106183 -0.09545096 -0.046667054 -0.010999997
0000a0 33 3c 1c bd 5f 44 c1 3a 02 da 2f be 69 6d 86 bd
       -0.038143348 0.0014745108 -0.17173007 -0.06563837
0000b0 5b f8 c0 3c 66 37 1c bd d0 cb b7 bd 51 07 ea bc
       0.023555925 -0.03813877 -0.08974421 -0.028567942
0000c0 bd e2 41 be 1e c0 38 bd 83 da a6 3c 5d 72 8c bc
       -0.1893415 -0.045105092 0.020367866 -0.017144376
0000d0 90 86 5c bd 4f b5 c4 bd 38 62 a6 bd 07 58 8d bd
       -0.053839266 -0.09604894 -0.081242025 -0.069015555
0000e0 97 a6 86 bd fe 13 4b 3d b1 a3 bd bc 50 e3 9f 3d
       -0.06574743 0.049579613 -0.023149343 0.07807028
0000f0 f5 c6 40 bd 4a 92 2f be ec ae 15 3d 81 2b 03 3e
       -0.04706474 -0.17145649 0.03654377 0.12809564
000100 7b 9b 55 3d 41 73 49 bd ab c2 d8 bc 86 ce f9 bd
       0.05215023 -0.04918218 -0.026460012 -0.12197594
000110 b1 b3 cb 3c 81 9f 38 be fe 16 65 bc 3f 16 40 bd
       0.024865957 -0.18029596 -0.013982533 -0.046896216
000120 5d ce 80 bd 25 6e 68 bd e7 c1 b3 3d 64 15 33 bd
       -0.06289361 -0.056745667 0.08777218 -0.04372157
000130 9e 29 38 bd 6a ef c1 3c 64 71 c8 3c 73 e5 f6 bc
       -0.044961564 0.023673732 0.024468131 -0.030138707
000140 5f 19 26 bc a9 df 2b bd af 45 3f bc 4b 13 11 3e
       -0.010137885 -0.041961346 -0.011674329 0.14167516
000150 23 01 91 bc 44 10 f3 3c 5f 96 79 3d 6f 1f 04 be
       -0.017700737 0.029670842 0.06093442 -0.12902616
000160 21 38 ad bb 13 d2 a6 bd 80 27 5f 3e f6 88 bc bd
       -0.005286232 -0.08145537 0.21792412 -0.09205811
000170 dd 63 65 3e de c6 08 3e 69 6b 73 bd 83 c9 34 3e
       0.22401376 0.13357112 -0.059428606 0.17654996
000180 3e 72 ae bc 85 da 29 3e fe d0 bb bd dc 8e fd 3d
       -0.02129471 0.16587265 -0.091707215 0.12380764
000190 e3 29 14 be 82 ac 14 3d 3f 43 bb 3d 6e 3d 08 3e
       -0.14469104 0.03629733 0.091436855 0.13304684
0001a0 1a b0 f8 bd 9f ae c8 bd 1c 38 72 3d 3e 36 0a be
       -0.12142964 -0.09798931 0.05913554 -0.13497254
0001b0 91 d1 4b 3e ba 5c 43 3d 1b a2 55 3d 2a 2c 0c 3e
       0.19904162 0.047695853 0.05215655 0.13688722
0001c0 82 23 52 bd cd cb 4d bd bd 8b 6d bd 6e 44 29 3c
       -0.051303394 -0.050243188 -0.057994593 0.010331256
0001d0 bc 58 18 3d b0 c4 22 be 0c ac 6c bc 84 61 7f 3c
       0.037194 -0.15895343 -0.014445316 0.015587214
0001e0 cc fd e5 bc 73 ec fa bd 61 7f 5e bd 35 15 fa bd
       -0.028075121 -0.1225213 -0.054320697 -0.12211076
0001f0 f4 74 ef bd ba 6b bb 3d 0a 40 c1 bd 73 c7 6f bd
       -0.11692229 0.091514066 -0.094360426 -0.05853982
000200 63 38 d8 3d b1 04 06 be 7b a4 44 be 3e b0 8b bd
       0.1055763 -0.13087727 -0.1920337 -0.06820725
000210 2a 04 de 3a 66 29 53 be 23 a6 db 3c fa ac d5 bd
       0.0016938497 -0.20621261 0.026812619 -0.10433383
000220 8c d3 cc 3c a3 84 d3 bc da 8d 37 be 51 48 38 3d
       0.025003217 -0.025820082 -0.17925206 0.04499084
000230 a9 d6 2d 3e 64 ab 50 bc d6 be 0b bc d1 c1 7c 3c
       0.16976418 -0.012736175 -0.008529386 0.015427069
000240 aa 40 a6 3c a1 b6 d7 3d 7c 0a a9 3d 6d c9 18 be
       0.020294506 0.105328806 0.08253953 -0.14920588
000250 c6 39 fc 3d 6d 20 2a 3d 17 65 19 3d 4a ca 23 be
       0.12315707 0.04153483 0.037449922 -0.15995136
000260 0c d8 89 bd 14 21 6c be 47 ec 8b 3c 09 5d 4c 3c
       -0.06730661 -0.23059493 0.01708044 0.012473353
000270 9c ac 93 bd 13 18 10 3e 3b 21 22 3d 4f b5 88 3d
       -0.07210657 0.14071684 0.039582472 0.06675207
000280 f8 94 da bd e4 6b 41 bb 22 16 15 be a4 bc 03 be
       -0.10672945 -0.002951377 -0.14559224 -0.1286493
000290 c8 f5 d6 bc 6f e3 38 bd 0b 4f 68 bd 5f 00 84 bd
       -0.026240245 -0.045138773 -0.056716006 -0.06445383
0002a0 2d 09 16 3d 15 98 1c 3d 7e 4b f7 bd bb 98 be 3c
       0.036629844 0.038230974 -0.12074946 0.023266187
0002b0 1f e1 8d bd ed 6b d2 bc 69 9a 1c be fb 94 2d be
       -0.06927704 -0.025686229 -0.15293278 -0.16951363
0002c0 13 f6 05 be ef d8 16 3c fd cc b5 bd 18 6e b5 bd
       -0.13082151 0.009206994 -0.08876989 -0.08858889
0002d0 7c 0c 51 bd 5c e6 0a be 4b d3 db bd 01 03 a6 3c
       -0.051037297 -0.13564438 -0.1073366 0.020265104
0002e0 00 84 da bd 43 a4 a7 3d bc f1 2f be f5 06 f4 bb
       -0.10669708 0.08185627 -0.17182058 -0.0074471184
0002f0 b4 97 76 bc 87 bc 4e be 93 8f a0 bc 6b 66 7a 3d
       -0.015050817 -0.20189105 -0.019599712 0.06113283
000300 b7 b7 49 bc 78 f7 ed bc 34 31 63 3d 71 d1 c3 bd
       -0.012311867 -0.029048666 0.055466846 -0.09561432
000310 65 fa 10 bc 78 1b 4a bd bd a0 c0 3b d0 fa 17 3d
       -0.008848761 -0.049342602 0.0058785365 0.037104428
000320 9a d4 5b bd f6 2a 05 be 2c 5b a5 3d 6f fc 5d 3d
       -0.05366955 -0.1300467 0.0807403 0.054195818
000330 ec 39 7a bd 43 20 e7 3c 17 a1 0f be c6 38 31 3c
       -0.061090395 0.028213626 -0.14026295 0.0108167585
000340 06 e9 ab bc ca eb f2 bd 01 09 e2 3c b5 41 64 bc
       -0.020985138 -0.118613794 0.027592184 -0.013931681
000350 a8 97 82 bd a6 ea aa 3c 89 92 5f bb 7b 52 dc bd
       -0.063765824 0.020863842 -0.0034114441 -0.107579194
000360 ee 2c ce bd 5f 85 da bc 4a 62 72 3d 55 ff e5 bd
       -0.100671634 -0.026674924 0.059175767 -0.11230341
000370 34 bd 31 3e 1a c5 26 3e 8c 4b dd bc 17 e7 dc 3d
       0.17357332 0.16286126 -0.027013563 0.107862644
000380 b1 cd ad bd c5 c3 a9 3d 68 78 2d be d4 56 ec 3d
       -0.08486498 0.08289293 -0.16940463 0.11539999
000390 78 8b a9 3c a6 6a b0 bd fe 45 93 bc 0e 5e 00 3e
       0.020696387 -0.086140916 -0.01797771 0.12535879
0003a0 80 06 84 bd c1 08 0e be af 8d cd 3c 19 d1 d7 bd
       -0.06446552 -0.13870527 0.025091974 -0.10537929
0003b0 7a 5b 91 3d b8 6c b2 3c 6b 32 44 3e 17 4a 1e 3e
       0.07097526 0.021780357 0.19159858 0.1545795
0003c0 05 67 9f bd b0 cb c4 bd 05 ba 96 3d 61 53 59 3d
       -0.07783321 -0.09609163 0.07359699 0.053058032
0003d0 d5 ed 0b bd 4e 24 35 be 01 a6 12 be 40 bb 17 be
       -0.03416236 -0.1768963 -0.14321138 -0.14817524
0003e0 fe 9c 9d bc 07 81 c7 bd dc 7a 00 3d f0 eb 1e be
       -0.019239899 -0.09741407 0.031367168 -0.1551969
0003f0 07 e2 0c be 8c 48 0b 3e 7a 9c 36 be 77 41 16 be
       -0.13758098 0.13601893 -0.17833129 -0.1467341

a2c_network.actor_mlp.4.bias f4 [64]
000000 b5 85 12 be 9c e9 b7 bd ae c6 77 3d c2 43 79 3d
       -0.14308818 -0.08980104 0.06049221 0.060855635
000010 ee b6 82 3d ba be 95 3d 5f cd 44 3d 03 8f a7 3d
       0.06382547 0.07311769 0.04804742 0.08181574
000020 5d bc b6 bd 1d 94 b6 bd 83 9b 74 3d c8 be a1 3d
       -0.08922646 -0.08914969 0.05971862 0.07897717
000030 b7 3c 97 bd bd 13 a0 3d 62 f5 b6 bd 13 ec bf 3d
       -0.07384627 0.07816265 -0.08933522 0.093711995
000040 15 f9 09 be cf c0 a9 bd 2a a5 e4 bd 1a fb a1 3d
       -0.13473924 -0.082887284 -0.11164315 0.07909222
000050 82 29 c2 bd 98 c3 91 3d e7 04 e7 3d b8 b9 90 3d
       -0.09480573 0.07117385 0.11280232 0.07066673
000060 11 20 91 3d c0 4a a2 3d b8 32 26 be b9 ad 8d 3d
       0.07086194 0.07924414 -0.16230285 0.069179006
000070 a1 c0 c2 bd 66 8d 88 3d b5 1e c1 bd f0 5f 75 bd
       -0.09509397 0.066675946 -0.09429685 -0.059905946
000080 e2 87 cf bd 17 76 b2 3c 7a 3e c3 bd c2 c9 8b 3d
       -0.101333395 0.021784825 -0.09533401 0.068255916
000090 f4 26 77 3d e2 e5 c0 bd d8 d1 9b 3d 01 54 c7 bd
       0.060339883 -0.09418847 0.07608384 -0.09732819
0000a0 30 a5 76 3d eb aa 82 3d c5 1c 91 3d e0 05 67 3d
       0.06021613 0.06380256 0.070855655 0.056402087
0000b0 6e 31 a4 3d 32 3c 6f 3d 0e a7 b8 bd 4d d2 a0 bd
       0.080172405 0.058407016 -0.09016238 -0.07852612
0000c0 de 8a af bd b9 37 76 3d 5a 52 0b 3e 17 6f 80 3d
       -0.08571409 0.060111735 0.13605633 0.06271189
0000d0 9b e8 a3 3d c9 da b7 bd da 1e 91 3d 30 0e c0 bd
       0.0800335 -0.08977277 0.070859626 -0.09377706
0000e0 b5 35 c4 3d 01 7a 91 3d 27 8d 08 3d 15 3b 9e 3d
       0.09580556 0.071033485 0.03333774 0.07726113
0000f0 91 b0 7e 3d af a0 80 3d 2c 34 92 3d 7d 7b 8e 3d
       0.062180106 0.06280648 0.07138857 0.06957147

a2c_network.value.weight f4 [1, 64]
000000 53 91 cb bd 88 78 58 be 5f ec ed 3d 11 79 ad 3d
       -0.09939828 -0.21139729 0.1161735 0.08470357
000010 1b b4 5b 3c 85 a6 15 3d 03 1b ea 3c 91 a0 a5 3d
       0.01340964 0.03653576 0.028577333 0.08087266
000020 bb 22 12 be 19 32 01 be c0 b8 f9 39 25 2b a9 3d
       -0.14271061 -0.12616767 0.0004763063 0.08260182
000030 77 15 61 3c 77 f6 b9 3d 7e cf 0e be 44 5a 64 ba
       0.013738028 0.090802126 -0.1394634 -0.00087109604
000040 66 d7 43 3c 35 42 59 3c 8d fd fb bd d3 e3 2c 3d
       0.01195321 0.013260414 -0.1230422 0.042209458
000050 57 a8 2e 3b 1f 80 ff 3c fa 0f 9e 3c 3e 17 ba 3d
       0.0026650631 0.031189023 0.019294728 0.09086464
000060 5c c2 b3 3d 38 ac 99 3d 7d 13 31 bc 57 c8 2b 3d
       0.087773055 0.07503551 -0.010807869 0.041939106
000070 9a b9 fd 3c e1 9e f7 3d c5 2f c2 bd 31 5c f1 3a
       0.03097229 0.120908506 -0.094817676 0.0018414316
000080 ce 17 5b 3c 48 36 87 b9 4d d2 44 bc f9 27 07 3d
       0.013372375 -0.0002578965 -0.01201303 0.032997105
000090 93 cd 73 3c 70 b0 05 be 02 e7 c0 3d 18 a0 e5 3a
       0.014880556 -0.13055587 0.09419061 0.0017519025
0000a0 d7 54 81 3c a6 d9 0d bc ee 58 f1 3d 44 83 7e 3d
       0.015787525 -0.008657848 0.1178454 0.062136903
0000b0 84 cd c0 3d 9a e7 d7 3d 19 92 e6 bd ab 5b 8a bd
       0.09414199 0.10542221 -0.11258335 -0.067557655
0000c0 ed fc 58 3c d5 25 4b 3c a1 a7 e4 3c 70 76 f8 3c
       0.013243896 0.012399157 0.027911963 0.030329913
0000d0 c4 db 28 3e b4 a8 33 be e7 36 16 3d d8 80 ea bc
       0.16490084 -0.17544824 0.036673453 -0.02862589
0000e0 7f fa 66 3c 78 b7 02 3e 8c d2 35 ba 2b 86 bd 3d
       0.014097809 0.127653 -0.0006935976 0.09254106
0000f0 c8 23 c9 3c bb 00 bf 3c 26 7d a8 3d 7c cf 27 3d
       0.024553195 0.023315778 0.08226995 0.040969357

a2c_network.mu.weight f4 [4, 64]
000000 44 ee c4 bd ac 9c e9 3d fe 52 42 bb 9b 74 35 bc
       -0.09615758 0.11406836 -0.0029651518 -0.011075164
000010 e5 86 7f 3c 78 6e 07 be f6 5d 85 bd 08 59 fb 3c
       0.015596126 -0.13225734 -0.06512062 0.030682102
000020 e7 72 b8 bc d1 ab 27 bc 9e 39 64 bc 14 c3 f6 3d
       -0.022515727 -0.010233835 -0.013929753 0.12048927
000030 60 91 27 bc 41 70 21 3d 01 0c e2 3c 8c c3 03 3d
       -0.010227531 0.039413694 0.027593615 0.03216891
000040 1b 83 80 bd e9 19 68 bb 5c d6 d4 bc e8 d1 5d bc
       -0.062750064 -0.0035415834 -0.02598112 -0.013538815
000050 06 a5 8d bd 0f 98 1e 3d a7 0a 50 bd be 88 85 bd
       -0.06916241 0.038719233 -0.05079141 -0.06520222
000060 ec 43 19 3e cc 5c e4 bc c9 f0 32 3d 37 66 82 3a
       0.14967316 -0.02787628 0.043686662 0.0009948675
000070 c1 79 32 be ee 13 70 bd f5 58 66 bd d7 5e c5 bb
       -0.17429258 -0.058612756 -0.05623718 -0.0060232687
000080 92 8b 48 bb 25 44 b2 3c 94 bf 78 bd 24 4f 1a be
       -0.0030600769 0.02176101 -0.06072958 -0.15069252
000090 0c bb cd 3b e9 87 fd bb 0a 9e 01 3e f4 a4 b2 bd
       0.0062784012 -0.007737149 0.12657943 -0.087228686
0000a0 01 34 d8 39 42 ef 7d 3d 45 9f 36 bd 1c 0f fd bd
       0.00041237476 0.061995752 -0.044585485 -0.123563975
0000b0 81 e7 d6 bc c9 ab c9 ba 55 46 65 bd 88 04 30 3c
       -0.026233437 -0.0015386279 -0.055975277 0.010743268
0000c0 3a 81 bc 3b a4 2e 1b bc 68 bb b3 3d 8c 3d 33 3d
       0.0057527097 -0.009471569 0.08775979 0.043759868
0000d0 05 d4 c2 3c 04 f6 e8 3d fa 46 8d 3d e5 51 c8 bb
       0.02378274 0.11375049 0.06898303 -0.006113278
0000e0 ad 73 f7 3b 65 e3 06 ba 1e 48 39 bc 34 1c aa bd
       0.0075516314 -0.0005145579 -0.011308698 -0.083061606
0000f0 1d ce 21 3d 93 80 29 bc 28 76 86 bd d6 32 50 bd
       0.039503206 -0.010345596 -0.06565505 -0.05082973
000100 99 2c d6 3d ad f2 68 bb 99 f8 db bd 6f 11 01 bd
       0.10457725 -0.0035545037 -0.107407756 -0.031510767
000110 da d2 91 bb 30 6f 88 3d 93 73 8d bd 98 fd 6e 3d
       -0.0044501843 0.06661832 -0.0690681 0.058347315
000120 68 a8 9c bd 5f c2 39 bd aa 7f ae 3b 66 87 fa 3d
       -0.076493084 -0.045351382 0.0053252773 0.122328565
000130 ca 3b a8 bc 17 cf 89 3c e2 bd 1e bd 71 b0 e5 3c
       -0.020536322 0.016822381 -0.038755305 0.028038235
000140 87 1d 02 3d c0 98 3d 3c c4 37 2e bd 91 f5 fa 3c
       0.03176644 0.011572063 -0.04253365 0.030634673
000150 bc ce ff bb bf 8e 86 3d 68 ed 72 3d bd de 9b bd
       -0.007806627 0.065701954 0.05930844 -0.07610843
000160 54 ba b7 bd 9a e7 6a 3d e5 bb ad 3c 8a 48 6f 3d
       -0.08971086 0.05734978 0.02120776 0.058418788
000170 60 37 69 3c c4 78 4d bd 8f 9a bc 3c 5a fc 5b bc
       0.014234394 -0.050164 0.023022918 -0.0134268645
000180 45 4e 20 3c c1 d5 0e 3d ab b8 8b bd 31 cd 91 3d
       0.009784286 0.03487182 -0.06822332 0.07119215
000190 fb 4e a3 bc 2a 8e b1 bd 2a 10 d0 3c c3 7d ae 3d
       -0.019935122 -0.08669694 0.025398333 0.08520081
0001a0 f9 2e 6a 3c 87 25 40 bb f1 d3 bb 3c 52 6c f5 3c
       0.014293426 -0.0029319243 0.02292821 0.029958878
0001b0 c6 c9 08 3e a3 c5 44 bd 97 ce 84 3c fb be 53 3d
       0.1335822 -0.048040044 0.016211791 0.051695805
0001c0 a6 08 e5 bc 9a 21 53 3c fd eb 02 bd e7 54 24 be
       -0.027958225 0.012886429 -0.031963337 -0.16048013
0001d0 98 91 fc bd 42 51 9e 3d 2c e7 33 3d f8 be a1 3d
       -0.12332457 0.077303424 0.043921635 0.078977525
0001e0 5c 76 af 3c a0 3d 2d 3c 3c 86 fa 3c 4b 12 aa 3d
       0.021418743 0.010573775 0.030581586 0.0830427
0001f0 49 d9 d9 3c 62 b5 96 3c b3 f3 a5 3d 3f 09 a3 bc
       0.026592867 0.018397037 0.081031226 -0.01990187
000200 02 d0 a3 bb b1 01 00 3e 1a 80 c5 bd b7 7e a6 3c
       -0.0049991617 0.12500645 -0.09643574 0.020324094
000210 ec e3 9b bb 5e b4 e9 3d 1c ce fb bc 7e f4 a8 3c
       -0.004757395 0.114113554 -0.030737929 0.020624395
000220 ed 44 36 3a 8a 74 34 bd 66 51 a7 3b 64 59 0f 3d
       0.000695302 -0.044056453 0.005106139 0.03499736
000230 21 6c 69 bc 75 fa 55 bc b1 fe f1 3c 31 d1 0e 3c
       -0.014246971 -0.013060202 0.029540392 0.008716867
000240 8c 65 bd ba 2d a2 11 3c 36 4d b4 3d d0 00 8e 3d
       -0.0014449819 0.008888763 0.08803789 0.06933749
000250 4e e9 6e bd b0 36 2a 3e 83 52 10 3d 84 b9 32 bd
       -0.058327965 0.16622424 0.03523494 -0.043633953
000260 a2 3d 10 3d 6e 14 be 3d 76 4d 99 bd 00 e3 dd 39
       0.035215028 0.092812404 -0.074854776 0.00042321533
000270 b4 11 a0 3d 63 c8 09 be 12 89 00 3d 5f 9c 9c bb
       0.078158766 -0.13455348 0.03138072 -0.004779383
000280 2b c4 0c 3b c2 0f 58 3c 9f d6 8b 3d 23 df 3d 3d
       0.002147923 0.013187351 0.06828045 0.046355378
000290 59 de 08 bc 6b d6 87 3d 19 b6 16 bd c2 2f cf bc
       -0.008353793 0.06632694 -0.036794756 -0.025291327
0002a0 09 94 7d bc 09 d7 30 bb 9a f0 9e bd ef 00 fb 3c
       -0.015477189 -0.002698364 -0.07760735 0.030640094
0002b0 85 8c 8b 3c 11 48 64 3d a8 8b b3 3d 96 7d ef bd
       0.017034778 0.05573279 0.08766872 -0.116938755
0002c0 a8 00 89 bc 45 19 88 3c 7d 73 52 3d bb ec fd bd
       -0.016723946 0.016613612 0.05137967 -0.123986684
0002d0 25 6c 88 3d 3d 0a a0 bd 3c b0 cc bd 47 90 2a 3d
       0.06661252 -0.07814453 -0.099945515 0.0416415
0002e0 c0 96 05 3d 28 db 94 3d 56 07 15 ba 9b e8 ad 3d
       0.03261447 0.07268363 -0.0005684992 0.084916316
0002f0 2b df 88 bc c9 fb 89 3d 39 29 4b 3d ae 6e 8e 3d
       -0.016707977 0.06737477 0.04959986 0.06954704
000300 77 50 75 bc 61 b1 cc bd d2 6e 5f bd 66 5a 5e 3c
       -0.014972798 -0.0999477 -0.054549046 0.013571357
000310 13 d1 64 bc 42 3c 4e 3b cc 29 bd bc 18 7d d2 3c
       -0.013965863 0.0031469022 -0.02309122 0.025694415
000320 9f 52 ff bd 8f 61 b4 3b e4 32 0c 3b c0 63 b9 bc
       -0.124669306 0.005504794 0.0021392638 -0.022630572
000330 d5 e2 eb 3b f6 bb 2c 3d f6 85 9e 3d 0b 15 39 bc
       0.0071986713 0.04217144 0.07740395 -0.011296521
000340 55 07 0e 3c 16 d5 39 3a 11 74 2a 3d e2 0d 02 bc
       0.00866874 0.0007088942 0.041614596 -0.00793788
000350 85 28 8e bc 43 70 36 3b 38 c7 2f bc eb b3 65 bc
       -0.017353306 0.002783791 -0.01072865 -0.014019947
000360 41 ee 84 3c 24 0a b4 3c ef a1 03 3d 2d 14 97 bc
       0.01622689 0.021977492 0.032136854 -0.018442238
000370 62 33 49 bd 19 4a 85 3d 2d 20 30 3d b1 4a 58 3c
       -0.049121268 0.06508274 0.042999435 0.013201402
000380 48 08 74 bb 47 19 10 bd 7b 93 0f bd 1d de 43 bd
       -0.0037236381 -0.035180356 -0.035052758 -0.047819246
000390 d5 0c e8 bc 4b d7 f4 bc 5c f1 9a bc 00 f4 9b 3c
       -0.028326431 -0.029887816 -0.018913917 0.019037247
0003a0 14 e5 be 3c 60 28 ab 3c a7 a3 ff bc 18 15 1f 3d
       0.023302592 0.020893276 -0.031205965 0.038838476
0003b0 39 b5 2e bd 40 08 a2 bd ce d0 8b bd 1e a9 ab bd
       -0.042653296 -0.0791173 -0.06826936 -0.08381866
0003c0 1e 01 ac 3b bc a9 c6 bb 1a c8 84 bd 4e dd 94 bd
       0.0052491566 -0.0060627144 -0.06483479 -0.07268773
0003d0 24 38 49 3d 33 41 93 3d 0b 07 38 bd d1 db d3 3c
       0.049125805 0.0719017 -0.04492859 0.025861653
0003e0 d7 91 35 3c 96 b1 90 bd 3c 22 ad 3c de 5f 0d 3d
       0.011082134 -0.07065122 0.021134488 0.034515254
0003f0 0c cd 08 3d 00 1f 04 bd fb 8d 8b 3d 9e f3 b6 ba
       0.033398673 -0.032256126 0.0681419 -0.0013958102

a2c_network.mu.bias f4 [4]
000000 a1 43 b2 3c e4 98 2f bd 6a 37 cf bc 09 e0 0d 3d
       0.021760764 -0.042870417 -0.025294978 0.034637485

exp_avg f4 [4]
000000 78 7d 8a bb 46 c6 a8 ba f6 ae 90 3b 02 a2 88 3a
       -0.004226383 -0.0012876473 0.004415388 0.0010424259

exp_avg_sq f4 [4]
000000 a6 dc 33 39 7b ac 31 39 4c 3d 4c 39 a3 a1 16 39
       0.00017152968 0.0001694429 0.00019477791 0.00014365329
